checkpoints/model_final.pth (torch, 5637 bytes, 8 tensors)

net.0.weight f4 [16, 5]
00000000: 586e ae3e 4ddd be3e b0da d2bd 31c7 d13e
00000010: f0a1 c5bd 2bed bb3d ee96 60be c755 873e
00000020: a55e c93e e203 a7be 1a0d c63e 61a0 a73d
00000030: a70c aa3e 64df 703d 0e27 5b3e 831c 7cbd
00000040: 5f23 b13e a88e 833d 3256 57be 0437 e63d
00000050: 73f9 53be 7203 5fbd 123d 38be 9c26 973e
00000060: 19cf b3be 54ff 53be 9c4f 03be 3691 8abe
00000070: 08db 333d 8d8c e1be f0ab cf3e 5a5b c2be
00000080: 7bb5 b13e 00ae 9b3d e8a7 12be 4553 8e3e
00000090: 0b9b 8b3d 31fe b93e e032 413d e595 11be
000000a0: bf4f f93d 0263 f5bd d3c6 413e b659 cd3e
000000b0: 956e 833e c288 46be 8e61 833e 1e49 a03d
000000c0: 51fb 693e d2b1 8abe 07ad e1be 78a2 32be
000000d0: 2bb2 aebe 27f3 ba3e 806d 023e aefd 3b3e
000000e0: 082e 0f3e ddb1 c8bb cf44 b23e 3c9a a3be
000000f0: 1f07 f73c 1d45 9dbe 0cf5 0e3e 6c78 1fbe
00000100: 2f5f 0a3e 3e48 bcbd 41aa be3e 3694 88be
00000110: 0eba 87be d3a4 87be 6f42 cd3e ad8d 1a3e
00000120: c04f db3e 24f4 bbbe 5d5d e2be b11c b4be
00000130: d029 99be 76ce 3a3e fc4e 223e 6f1c bf3e
0.3406856 0.37278214 -0.102956176 0.40972283 -0.09650028 0.091760956 -0.21932575 0.2643263
0.3933002 -0.3262015 0.3868187 0.08184887 0.33212778 0.058806792 0.21401617 -0.06155063
0.34597299 0.06423694 -0.21028975 0.11240962 -0.20700626 -0.054446645 -0.17992046 0.29521644
-0.3511894 -0.20702869 -0.12823337 -0.27063912 0.043910056 -0.44052544 0.40560865 -0.3796032
0.3470877 0.07601547 -0.14321864 0.27797905 0.068166815 0.36326745 0.04716766 -0.14217336
0.121734135 -0.11981775 0.18923502 0.40107507 0.25670305 -0.19388106 0.25660366 0.07826446
0.22849776 -0.2708879 -0.44077322 -0.1744479 -0.34120306 0.36513636 0.12737083 0.1835849
0.13982403 -0.0061247186 0.34818122 -0.3195361 0.030154763 -0.30716792 0.13960665 -0.15573281
0.13512872 -0.091934666 0.37239268 -0.26675576 -0.26509136 -0.26492938 0.40089747 0.15093108
0.42834282 -0.36709702 -0.44211856 -0.3517814 -0.29914713 0.18242821 0.15850443 0.3732638

net.0.bias f4 [16]
00000000: 257a 6abe 1d47 9bbe fb24 723e acfa 37be
00000010: e318 8a3e a643 dabd d1fd 833e eaff b0be
00000020: 9952 65be 81ef 0c3e 1d36 be3d 2f07 edbd
00000030: 20ce 873e 88a5 9a3e e211 a7be 7ac0 72be
-0.22898157 -0.30327693 0.2364692 -0.17966717 0.26972112 -0.10657434 0.25779584 -0.34570247
-0.2239479 0.13763238 0.09287665 -0.11573636 0.26524448 0.30204415 -0.3263083 -0.23706236

net.2.weight f4 [8, 16]
00000000: f021 6c3e 1b3b a9bd 321c b2bd 5749 79be
00000010: 50cf 10be 76ce 773d a334 0fbd fcd5 37be
00000020: 4476 f83b e107 2dbe 7128 57be 9e3a 0bbe
00000030: 52da 61be 8dbb 24be 4a2e 7e3e 2a8b 493d
00000040: 8d74 a13d fd6a 70be 63b0 29be e2de a6bd
00000050: ab28 1a3d 93e7 62be 1855 e0bd e3f4 1abe
00000060: a35e 6cba 27b6 c0bd c461 99bc 6006 2fbe
00000070: 76d9 2ebe 1191 13be e59d abbd 1ccb 4bbe
00000080: 1af0 543e 6a09 52bd 9099 5a3e eece a03d
00000090: 6145 5abe a8ff 323e e126 89bd 08a7 c7bd
000000a0: 5b34 56be fd36 80be d7c4 8e3d 358a 66bd
000000b0: 57d6 ca3d 4658 50be 57cb 3f3e bcc8 3dbe
000000c0: 8bcb 29bd 7d96 5d3d 2f26 063e 0998 4f3e
000000d0: 6a35 6a3e 3f84 4abe 9eed 843d 8b89 d9bd
000000e0: ed21 d0bc b73e 3ebe 3c41 673e 603e 3abe
000000f0: 3745 083e 3d38 b03d 2c8c a73d cedf 0bbe
00000100: a009 673e d501 5c3d f8fe fb3c 4d92 5fbe
00000110: 1cc0 d33d c52a 1fbd 15e5 edbd 62b3 5d3e
00000120: b632 623d 89f1 0ebe cfde ffbd fbbc 5cbc
00000130: ed77 103e 8be5 7fbd 300d 10be f3ff acbd
00000140: 9465 3dbe 2387 ba3d 4205 483e fbd4 71be
00000150: d46c 713d 2a36 053e c7a1 403d 190e b3bd
00000160: 85a2 073e c036 073e c0c3 bb3d a1f9 2cbd
00000170: 65a1 83bd 6bf9 cb3c b7e0 2cbd 0171 9cbd
00000180: 4411 223e c5fe 5a3e 072e bbbc b6c6 5dbd
00000190: 0c87 913b a834 65bc 64ef 7d3d 9c77 933d
000001a0: 57a3 66be f86c b9bd 74b6 553e ba1a c43d
000001b0: b283 61bc 9755 19be 53db 1abe 42ec 66be
000001c0: 5c7f a3bd de28 b03d 833c 213e 8a31 f03d
000001d0: 16ba 60be 75fa 1bbe 5d78 29bd d0ef 753e
000001e0: e5cb 0c3d 9028 81bd 382e d03d aacf bfbd
000001f0: 316f 27be 5e8c 3c3e 9a4b ecbd 162e 54bd
0.23059821 -0.082632266 -0.08696784 -0.24344383 -0.14141583 0.06049963 -0.034962308 -0.17952722
0.0075824577 -0.16897537 -0.21011521 -0.1359658 -0.22055939 -0.1608717 0.24822345 0.049204983
0.078835584 -0.23478313 -0.16571192 -0.0814798 0.03763644 -0.22158651 -0.1095373 -0.1513248
-0.00090167875 -0.09409743 -0.018723376 -0.17092276 -0.17075142 -0.14410807 -0.08379725 -0.19901699
0.20794716 -0.05127851 0.21347642 0.07851969 -0.21315528 0.17480338 -0.06696869 -0.097486556
-0.2091841 -0.25041953 0.06971138 -0.05628415 0.09904163 -0.20346174 0.18729912 -0.18533605
-0.04145388 0.054098595 0.13100503 0.2027284 0.22871938 -0.1977701 0.064906344 -0.10621937
-0.025406802 -0.18578611 0.22583479 -0.18187857 0.13307653 0.086044766 0.081810325 -0.13659593
0.22562265 0.053712685 0.030761227 -0.21833153 0.10339376 -0.038859148 -0.116159596 0.2165046
0.055224143 -0.13959326 -0.12493669 -0.013472791 0.14108248 -0.06247477 -0.1406753 -0.08447256
-0.1849578 0.091078065 0.19533256 -0.23616402 0.058941677 0.13008943 0.047029283 -0.08742923
0.1324559 0.13204479 0.09168196 -0.042230252 -0.06427268 0.024899205 -0.042206492 -0.07638741
0.15826899 0.2138625 -0.022849096 -0.054144584 0.0044411477 -0.013989605 0.06199588 0.07200548
-0.22523247 -0.09053987 0.20870382 0.0957541 -0.013764309 -0.14974056 -0.15122728 -0.22551063
-0.07983276 0.08601545 0.1574574 0.11728199 -0.21945986 -0.1523226 -0.041374553 0.24017262
0.034374136 -0.06306565 0.101650655 -0.09365781 -0.1635101 0.18412921 -0.11537857 -0.051801763

net.2.bias f4 [8]
00000000: b007 7dbe f21f 2d3e 81fb 433e 4195 be3d
00000010: 7507 34be bb15 7bbe 56e0 4dbe 897a 403e
-0.24709964 0.16906717 0.1913891 0.09305812 -0.1758097 -0.24520008 -0.20105109 0.18796743

net.0.weight f4 [16, 8]
00000000: 7f39 2f3e ee54 993e 7134 3f3e 67b1 b63d
00000010: 26c2 eaba b066 8abe ae27 9abe cbe3 a8be
00000020: e657 123e 1cf1 32be 6779 95bd 6f8e 4ebe
00000030: 850a 88bd 94f2 7cbe e119 6dbe 8cc3 f03d
00000040: dbc5 d3bd 5636 613e bdde e4bd 19a5 85be
00000050: 99ab 78bd 1b35 31be e61a dabd 462f adbe
00000060: 54e7 483e 8819 7ebe fa3c 343e 3946 223e
00000070: a86c 803e 2e0f 8abe b542 813e a994 2cbe
00000080: 4170 043e 2a06 a93e dead 53bd 8cca 5dbb
00000090: b64e aabd 9e40 96be 051b 2c3e 7aac b4be
000000a0: 1eaf 623e a460 883e d020 ac3e 3a8d a9bd
000000b0: fad5 93be 5625 9f3d 7e94 493e 462e b3be
000000c0: c990 a0bd 9905 57be d29e edbc fffb 33be
000000d0: 3125 12be 2120 e9bd ac24 abbe 9db3 933e
000000e0: 84bf 963e c727 6abd aab6 2cbd 702a 14be
000000f0: 5360 a4be b132 afbe 5a1f 053e 3ed3 48be
00000100: db74 6abe 12a9 efbc ce8b f4bd 72d5 e6bd
00000110: f3c2 1e3c 5f2a 96bd a7ba fcbd d8a2 2bbe
00000120: a476 92be 53ee 963e 4e2c 0fbe 0272 bc3d
00000130: 53cf f7bd 3aad dd3c 959e a93e db16 253e
00000140: 847d 9cbe c674 103e 5936 ac3e fcf7 bc3d
00000150: 4e7b 733e 6e15 b23e 81f2 60bd 39cf 973d
00000160: 7ead 79be 379d 92bd ce06 873e b98d 373e
00000170: 3f5f 63be d12b 92be 84cf 75be 4246 b3be
00000180: 97d3 8abe 64a4 afbd b20a 763e 653c 793d
00000190: 49d4 88be b612 92be c0d0 353e 6bcb 85be
000001a0: ed25 39bd dd61 2f3e 1944 29be ec10 17bd
000001b0: f8e4 04bd 65e2 a7bd 8046 39be 3583 a0be
000001c0: c0da 92be b4bc 43be 5531 ae3e 6152 2ebe
000001d0: 8bdc 74be 2364 b13d a5a0 c33d c752 483e
000001e0: 3ea4 883e baae 473e f371 b4be a47e fc3c
000001f0: c762 593e c763 fbbc 1eb6 56be eb92 ab3e
0.17111777 0.2994761 0.18672349 0.089205556 -0.0017910644 -0.2703147 -0.30108398 -0.32986292
0.14291343 -0.17474788 -0.07298546 -0.20171522 -0.066426314 -0.24701911 -0.23154403 0.117560476
-0.10340472 0.21993384 -0.111752965 -0.26102522 -0.060710523 -0.17305414 -0.10649662 -0.3382513
0.19619495 -0.24814427 0.17601386 0.158471 0.25082898 -0.26964706 0.25246206 -0.16853584
0.12933446 0.33012515 -0.051679485 -0.0033842651 -0.08315794 -0.29346174 0.16807182 -0.3528784
0.22137114 0.2663623 0.33618784 -0.0827889 -0.2887419 0.07770793 0.19685552 -0.3499624
-0.078401156 -0.20998229 -0.029006395 -0.17576598 -0.14272 -0.11383081 -0.33426416 0.28847972
0.2944299 -0.05716684 -0.04216639 -0.14469314 -0.3210474 -0.34218362 0.13000241 -0.19611832
-0.2289614 -0.029255424 -0.11940728 -0.1127118 0.009690034 -0.073323004 -0.123402886 -0.16761339
-0.2860614 0.29478702 -0.13981745 0.09201433 -0.12100091 0.02706014 0.331288 0.16122
-0.3056451 0.14107046 0.33635214 0.09226987 0.23777506 0.34781975 -0.05491877 0.074125715
-0.24382588 -0.071588926 0.2637238 0.17925157 -0.22204302 -0.28549054 -0.24004942 -0.3501454
-0.27114555 -0.08576277 0.24027517 0.060848612 -0.2672446 -0.285299 0.17755413 -0.26131758
-0.045202184 0.17127176 -0.16529883 -0.036881372 -0.032444924 -0.08197478 -0.180933 -0.31350103
-0.28682518 -0.19114953 0.34022012 -0.17023613 -0.23912255 0.08661678 0.09552125 0.19562827
0.26687807 0.19500247 -0.35243186 0.030822106 0.21229087 -0.030687226 -0.2096791 0.33510527

net.0.bias f4 [16]
00000000: 614b 06be 59d4 4dbe d00d a4be dd3b 6c3c
00000010: 0d9f 1e3e bd06 a43d 4e6d 8b3d 2048 8abe
00000020: 5432 a8be bd48 953b cb70 a53e 988d 4f3e
00000030: c814 51be 6e24 35bd 4b83 84be 3e77 30be
-0.13114692 -0.20100535 -0.32041788 0.014418569 0.1549036 0.08009098 0.068079576 -0.27008152
-0.32850897 0.00455579 0.32312617 0.20268857 -0.20418084 -0.044224195 -0.2588142 -0.17232987

net.2.weight f4 [5, 16]
00000000: b0d8 3f3d f85e 093e 365a 523e ed4b 69be
00000010: 8cf8 2c3e 6692 32be 82b5 bb3d 42c1 593e
00000020: 253e f13a 7233 673e fa5c 59be 7868 c7bd
00000030: dc05 173e eeef 65bd ef16 59bd c56f d9bd
00000040: 1f8c 313e 6b3b fc3d a07d a73d 8647 0ebe
00000050: bb1f 4ebe 4ce3 e93c 957b 993d 7ecc e9bd
00000060: 0cd6 8bbd b29a 2e3e 0f0c 9d3c e947 4d3c
00000070: 9a2a 75bd ee1e 66be b443 6fbe dec7 f3bd
00000080: 7e32 01be ec83 9b3d 1078 98bd f844 c5bd
00000090: 36c4 753e 0863 b53d 8987 343e 94cb f5bd
000000a0: 288e d4bd acc2 b83d f0cd 29be fb36 29be
000000b0: 2479 2abc 94b0 bebd 38bf 41be e0cd 153e
000000c0: 2999 4e3e 0512 1e3d ee21 39bd b9a6 6bbe
000000d0: 9e2e b7bd 9923 853d 8076 ed3d edb5 fabc
000000e0: 48d7 cdbd 92f0 0c3e eca3 4cbe 37f1 1f3e
000000f0: 6c36 c3bd 9350 0d3b 5c9b 51bd c419 e83c
00000100: 12cb 9ebd a3a5 3a3e 8a3e 9ebb 4be9 453e
00000110: ae55 743e b078 fdbd 1274 39be 2b5e 4b3e
00000120: b850 4a3e 0ac2 41be c169 a4bc 59d8 7abe
00000130: 8245 53be 569e 4c3d b37e 8b3d 9320 5b3d
0.04683751 0.13415134 0.20542225 -0.2278287 0.16891688 -0.17438659 0.09165479 0.21265128
0.0018405361 0.22578219 -0.21226874 -0.09736723 0.14748329 -0.056137018 -0.053000387 -0.106170215
0.17338608 0.123160206 0.08178258 -0.13894472 -0.20129292 0.028550766 0.074942745 -0.11415957
-0.068279356 0.17051199 0.019170789 0.012529352 -0.05985508 -0.22472736 -0.2336567 -0.11903356
-0.12616917 0.075935215 -0.07444775 -0.09632295 0.2400063 0.08856779 0.17629828 -0.1200172
-0.10378677 0.09021506 -0.16582465 -0.1652488 -0.010404859 -0.09311023 -0.189206 0.14629316
0.20175613 0.038591404 -0.045198373 -0.23012818 -0.089444384 0.0650093 0.11594868 -0.030604327
-0.10050827 0.13763645 -0.19984406 0.1561936 -0.095318645 0.0021562919 -0.051173553 0.028332599
-0.07753576 0.18227248 -0.0048292326 0.19327275 0.23860809 -0.12376535 -0.18110684 0.19860141
0.19757354 -0.18921676 -0.020069959 -0.24496593 -0.20631984 0.04995569 0.06811275 0.053497862

net.2.bias f4 [5]
00000000: b7ca 8abd ec62 6d3e 560a 143d fabf 16be
00000010: c62b 84bc
-0.06776946 0.23182267 0.03614267 -0.14721671 -0.016134154
